---------------------------------------------------------------------------
        Layer (type)          Output Shape         Param #     Tr. Param #
===========================================================================
   ReflectionPad2d-1      [1, 3, 262, 262]               0               0
            Conv2d-2      [1, 8, 256, 256]           1,184           1,184
       BatchNorm2d-3      [1, 8, 256, 256]              16              16
              ReLU-4      [1, 8, 256, 256]               0               0
            Conv2d-5     [1, 16, 128, 128]           1,168           1,168
       BatchNorm2d-6     [1, 16, 128, 128]              32              32
            Conv2d-7       [1, 32, 64, 64]           4,640           4,640
       BatchNorm2d-8       [1, 32, 64, 64]              64              64
            Conv2d-9       [1, 64, 32, 32]          18,496          18,496
      BatchNorm2d-10       [1, 64, 32, 32]             128             128
           Conv2d-11      [1, 128, 16, 16]          73,856          73,856
      BatchNorm2d-12      [1, 128, 16, 16]             256             256
            Block-13      [1, 128, 16, 16]         295,680         295,680
            Block-14      [1, 128, 16, 16]         295,680         295,680
            Block-15      [1, 128, 16, 16]         295,680         295,680
            Block-16      [1, 128, 16, 16]         295,680         295,680
            Block-17      [1, 128, 16, 16]         295,680         295,680
           Linear-18             [1, 1024]      33,555,456      33,555,456
      BatchNorm1d-19             [1, 1024]           2,048           2,048
             ReLU-20             [1, 1024]               0               0
           Linear-21               [1, 64]          65,600          65,600
      BatchNorm1d-22               [1, 64]             128             128
             ReLU-23               [1, 64]               0               0
           Linear-24                [1, 3]             195             195
           Linear-25             [1, 5196]     170,267,724     170,267,724
      BatchNorm1d-26             [1, 5196]          10,392          10,392
             ReLU-27             [1, 5196]               0               0
           Linear-28             [1, 1024]       5,321,728       5,321,728
      BatchNorm1d-29             [1, 1024]           2,048           2,048
             ReLU-30             [1, 1024]               0               0
           Linear-31              [1, 256]         262,400         262,400
      BatchNorm1d-32              [1, 256]             512             512
             ReLU-33              [1, 256]               0               0
           Linear-34               [1, 64]          16,448          16,448
      BatchNorm1d-35               [1, 64]             128             128
             ReLU-36               [1, 64]               0               0
           Linear-37                [1, 4]             260             260
===========================================================================
Total params: 211,083,307
Trainable params: 211,083,307
Non-trainable params: 0
---------------------------------------------------------------------------


========================================== Hierarchical Summary ==========================================

HW5Net(
  (model): Sequential(
    (0): ReflectionPad2d((3, 3, 3, 3)), 0 params
…
