---------------------------------------------------------------------------
        Layer (type)          Output Shape         Param #     Tr. Param #
===========================================================================
   ReflectionPad2d-1      [1, 3, 262, 262]               0               0
            Conv2d-2      [1, 8, 256, 256]           1,184           1,184
       BatchNorm2d-3      [1, 8, 256, 256]              16              16
              ReLU-4      [1, 8, 256, 256]               0               0
            Conv2d-5     [1, 16, 128, 128]           1,168           1,168
       BatchNorm2d-6     [1, 16, 128, 128]              32              32
              ReLU-7     [1, 16, 128, 128]               0               0
            Conv2d-8       [1, 32, 64, 64]           4,640           4,640
       BatchNorm2d-9       [1, 32, 64, 64]              64              64
             ReLU-10       [1, 32, 64, 64]               0               0
           Conv2d-11       [1, 64, 32, 32]          18,496          18,496
      BatchNorm2d-12       [1, 64, 32, 32]             128             128
             ReLU-13       [1, 64, 32, 32]               0               0
           Conv2d-14      [1, 128, 16, 16]          73,856          73,856
      BatchNorm2d-15      [1, 128, 16, 16]             256             256
             ReLU-16      [1, 128, 16, 16]               0               0
            Block-17      [1, 128, 16, 16]         295,680         295,680
            Block-18      [1, 128, 16, 16]         295,680         295,680
            Block-19      [1, 128, 16, 16]         295,680         295,680
            Block-20      [1, 128, 16, 16]         295,680         295,680
            Block-21      [1, 128, 16, 16]         295,680         295,680
           Linear-22            [1, 11520]     377,498,880     377,498,880
      BatchNorm1d-23            [1, 11520]          23,040          23,040
             ReLU-24            [1, 11520]               0               0
           Linear-25             [1, 5760]      66,360,960      66,360,960
===========================================================================
Total params: 445,461,120
Trainable params: 445,461,120
Non-trainable params: 0
---------------------------------------------------------------------------


=========================================== Hierarchical Summary ===========================================

YoloNet(
  (model): Sequential(
    (0): ReflectionPad2d((3, 3, 3, 3)), 0 params
…
